data.pth (torch, 4991 bytes, 6 tensors)

l1.weight f4 [8, 54]
000000 5e be 5d 3f 8c 5b 23 3f a5 df bc be a5 1c 6f be
       0.866186 0.63811564 -0.36889377 -0.23350771
000010 75 8a ef be 94 b4 1e 3f 01 1a a8 be 97 c4 05 bf
       -0.46785322 0.6199429 -0.3283234 -0.522531
000020 09 3f 66 be 0a e8 0c bf 6d ac a6 be e3 17 36 3f
       -0.22484984 -0.55041564 -0.32553425 0.711302
000030 4b 14 1f be c7 de e1 3e 6e ac a0 3e f2 4d ef 3e
       -0.15535085 0.44115278 0.31381553 0.46739155
000040 40 01 fa be ee bf 43 3f b1 59 d2 be c3 3f 30 bf
       -0.4882908 0.76464736 -0.41084054 -0.6884729
000050 95 be 36 3f 07 8a 23 bf 6e 9b 30 bf 8b eb 2f 3e
       0.71384555 -0.6388249 -0.68987167 0.17179696
000060 9d a5 20 3e 38 18 c1 be 69 1a d9 be 68 57 ba 3d
       0.15688176 -0.3771379 -0.42402962 0.09098703
000070 17 76 80 3c 66 2e a8 3e 1f 25 0f 3f 04 b6 28 3f
       0.01568131 0.328479 0.5591602 0.65902734
000080 1a b2 1b 3f 8e 02 e7 be 5c 72 72 3e 27 31 bf 3e
       0.60818636 -0.45119137 0.23676437 0.37342188
000090 98 08 c1 bd 54 a1 bc be 1f 56 96 be 5d 82 90 be
       -0.09425467 -0.36841834 -0.2936258 -0.2822446
0000a0 33 3c 0f 3f e9 58 0e bf 6c bb 16 3f 5e c8 f0 3e
       0.5595123 -0.55604416 0.58879733 0.47027868
0000b0 63 c9 c6 3e ab db 3a 3e 96 50 be 3f d9 ea 58 3f
       0.3882552 0.18247859 1.4868343 0.8473335
0000c0 ce 38 2d be 29 39 3b bf 6a 38 fc 3e 99 fb e7 be
       -0.169162 -0.73134094 0.4926179 -0.4530914
0000d0 4d 3e 7f be 16 b9 b7 3e 0a 66 7a 3c 0d 15 8c be
       -0.2492611 0.35883397 0.015283117 -0.2735981
0000e0 d9 8d 2a 3f 3e 5d 06 bd 57 a4 cd 3a 9d 8c 62 3f
       0.6662269 -0.032803766 0.0015689236 0.8849581
0000f0 bf 5f 57 3e 92 c6 bd 3e c1 61 2d 3f 72 94 a6 3e
       0.21032618 0.3706556 0.67727286 0.3253513
000100 3b 99 5a be 97 81 4f 3f 4c 3b c6 3e f6 3e 31 3f
       -0.21347515 0.81057113 0.38717115 0.69236696
000110 76 61 2e be 19 cc 0a 3f 91 75 5e be 61 36 7d 3f
       -0.17029366 0.5421768 -0.21724536 0.989111
000120 11 95 b4 be e1 0b d3 be 9e 94 1e be f3 82 b4 be
       -0.3526998 -0.4122 -0.1548638 -0.35256156
000130 2f b2 bc be 7f 73 6c be ba d9 0a 3f d9 45 b5 bd
       -0.36854693 -0.23090933 0.54238474 -0.08851213
000140 a0 17 90 be 0c 71 48 be 7c 20 9f 3d 25 a7 ac be
       -0.28143024 -0.19574374 0.07769868 -0.3372127
000150 f1 7f f2 3e 18 72 25 3f 98 8a 24 be 65 c8 02 3f
       0.47363237 0.6462722 -0.16068494 0.5108703
000160 37 27 8f bd bb a2 1c 3f 2c c3 94 bc d5 89 21 3f
       -0.069899015 0.61185807 -0.018159471 0.6310094
000170 10 4e 3c 3e 16 8b 7d 3e 41 6b f8 3e a0 90 a8 be
       0.18389153 0.24760088 0.48519328 -0.3292284
000180 14 23 fa 3e e7 b9 67 bd 8a 54 3d 3f 9e 8e 0c be
       0.48854887 -0.056573775 0.7395712 -0.13726279
000190 45 14 79 be e5 3e 65 bd e3 10 b5 bd 98 a6 f4 be
       -0.24324138 -0.055968184 -0.088411115 -0.4778335
0001a0 23 9e 0a 3f 95 78 30 be 87 87 a7 3e 73 50 6f bc
       0.5414755 -0.17233498 0.32720587 -0.014606583
0001b0 2f 92 2f be ee 3c 4d be a8 bc 0f 3f 53 8a c7 be
       -0.17145608 -0.20042774 0.5614724 -0.3897272
0001c0 26 65 12 3f e8 87 64 3e 08 f3 87 3e be de e4 3e
       0.5718559 0.22317469 0.26552606 0.4470119
0001d0 f6 58 0c 3f 8f 95 19 3f 46 e1 0f be 96 67 a6 be
       0.54823244 0.59993833 -0.14050779 -0.32500905
0001e0 cf 7a 27 3f c2 39 02 be 7c 57 39 be d0 2b a9 be
       0.65421766 -0.12717345 -0.18099779 -0.3304124
0001f0 b9 62 77 be aa 8f 8d 3e 36 95 4e 3f d4 02 40 be
       -0.24158753 0.2764867 0.8069643 -0.18751079
000200 be 27 01 be 9e ab c0 bd aa ea 36 be 94 a8 b2 be
       -0.12612817 -0.094077334 -0.17862955 -0.3489424
000210 6d 04 8b 3e 52 99 5d be 59 5c 63 3f e3 88 bc be
       0.27151814 -0.21640518 0.88812786 -0.36823186
000220 53 a2 21 3f 87 6c a4 be a0 4e 52 3e 40 59 84 be
       0.6313831 -0.3211405 0.20537806 -0.25849342
000230 e4 6d 9f 3d f3 48 00 3f d8 ee c7 bc 4b 71 ba be
       0.07784632 0.5011131 -0.024405882 -0.3641456
000240 f7 91 1d 3f 0d 7c 07 3f c4 4e 92 3e 1c ae f4 3e
       0.6155085 0.5292366 0.28575718 0.47789085
000250 b5 6b 53 3e 74 a9 66 3f ad 93 ff bd 29 60 04 3d
       0.20646556 0.90102315 -0.12479339 0.032318268
000260 78 37 f2 3e cd e7 5f be 88 f5 1d bf c5 24 ad bd
       0.47307944 -0.21865769 -0.61702776 -0.08454279
000270 58 b3 99 3e 21 70 7c 3f 01 cd 93 be 0f 00 2a 3f
       0.3001964 0.98608595 -0.28867343 0.6640634
000280 a9 bb a3 3e d7 2a b9 3e cc c9 30 3e ca c0 08 be
       0.3197911 0.36165497 0.1726448 -0.13354793
000290 ef 9b 75 3e e2 75 d7 3e 0c 57 c6 3e 77 7e 57 3e
       0.23985265 0.42082125 0.38738286 0.21044336
0002a0 b2 80 a9 3e 23 b8 9e 3e d0 3b 1c 3e 08 6b 76 3e
       0.33106 0.3099986 0.15257192 0.24064267
0002b0 6e 9f b3 3e 9a 2d 83 be d1 b6 a5 3e f1 0f c5 bd
       0.35082573 -0.2562073 0.3236604 -0.09622181
0002c0 22 9a 07 3e 4d 50 6c be 74 10 8e 3e 3e c8 9d 3e
       0.13242391 -0.23077507 0.27746928 0.30816835
0002d0 59 10 07 3e 3c 24 32 3f 22 87 6f 3e 37 a2 08 3f
       0.1318983 0.6958654 0.23391393 0.5337252
0002e0 87 1c 20 3f b4 42 2b bd 80 44 8e 3e 47 ae ac 3e
       0.6254353 -0.04181166 0.27786636 0.33726713
0002f0 03 b2 60 3e 7a b3 7c bc 3e 20 c8 3d b5 4d 84 be
       0.21942906 -0.01542365 0.09771775 -0.25840536
000300 75 92 20 3e bc 36 91 be a1 49 01 3f 6b f6 c7 3e
       0.15680869 -0.28362072 0.50502974 0.3905519
000310 ee da e0 3e 57 10 6a be 56 89 09 3e 8c 0e 1d 3e
       0.4391703 -0.22857796 0.13431296 0.1533758
000320 3f 10 c5 3e bd 4a a6 3e 86 5e 2f 3e ac de 60 bb
       0.38488957 0.32478896 0.17125902 -0.003431241
000330 55 6b be be 7b 63 b6 bd 48 9b e1 bc 70 89 ac 3e
       -0.37191263 -0.08905693 -0.027539864 0.33698606
000340 ad 42 1c be ca 47 41 3e 99 ae d4 3e 82 3b aa 3d
       -0.1525981 0.18875042 0.41539457 0.083121315
000350 c5 6a 9d be 52 01 ba 3d ed b1 58 3e e6 ea ae 3e
       -0.3074552 0.09082283 0.21161623 0.34163588
000360 5a e2 de 3e 39 06 86 be cc 37 1d 3f fc 17 d0 be
       0.43532068 -0.26176623 0.61413264 -0.406433
000370 2c b4 83 bb 8d 96 69 3f dc 2a 07 3f e2 23 1d 3f
       -0.004019281 0.9124535 0.52799773 0.6138288
000380 26 d6 2d 3f b5 b4 d0 3e ac 8f c6 be a6 61 0c be
       0.6790489 0.4076287 -0.38781488 -0.13709125
000390 36 14 f0 3e d2 52 53 3e fb 7d a1 be 0a 56 56 be
       0.4689042 0.20637062 -0.31541428 -0.20931259
0003a0 14 4e c1 be 43 cd 7c 3f ef 13 7c 3e 71 4c 40 bf
       -0.3775488 0.98750705 0.24616979 -0.7511664
0003b0 4a f4 8f 3d c1 cd 41 bf 15 76 3a bf f3 44 00 bf
       0.07029016 -0.7570458 -0.7283643 -0.5010521
0003c0 b2 45 2a 3e d8 37 e1 be f1 d0 06 3f 41 04 1f bf
       0.16628149 -0.43987918 0.5266257 -0.62115866
0003d0 a9 3b fe 3e df ab f1 be 02 79 16 3f 9a 83 34 3e
       0.49654892 -0.4720144 0.58778393 0.17628327
0003e0 dd 6c 0d 3f 74 e9 2c 3f f1 80 b8 bd 31 8e f3 bd
       0.5524424 0.6754372 -0.090089686 -0.11892355
0003f0 ca 6f 01 3f cb 82 2f 3f 00 f5 bb 3e 01 21 e5 3e
       0.505612 0.6855895 0.36710358 0.44751742

l1.bias f4 [8]
000000 e2 ce 8a 3f 73 2d de 3e 47 8c c3 3e b3 0c 80 3f
       1.0844386 0.4339405 0.3819296 1.0003875
000010 b5 47 45 3f 64 e2 57 3f 73 c8 3b 3f 27 ff 2b 3f
       0.7706254 0.8432982 0.73352736 0.67186207

l2.weight f4 [8, 8]
000000 04 ec 51 bf 39 1a 92 bf 52 ca f0 3e da 62 95 3f
       -0.82000756 -1.1414253 0.47029358 1.1670792
000010 04 47 31 bf cd 1c 91 3f 64 5c ae 3f 5c 4e 7f 3f
       -0.69248986 1.1336914 1.3621945 0.9972894
000020 36 d8 4e be 1a 77 2d be 5e 0d 03 3e d8 89 7e 3d
       -0.20199665 -0.16939965 0.12798068 0.062143177
000030 ae 59 22 be ed 55 02 be 2d 87 a7 be 34 87 99 be
       -0.15854523 -0.1272809 -0.32720318 -0.29985964
000040 35 b2 8e be f1 14 6d 3f 5c 44 ec be d0 3e 9d 3d
       -0.27870336 0.9261008 -0.46145904 0.07677996
000050 93 d2 89 bd 19 5e 8c 3f 6a 28 3b 3e d2 6c a3 3f
       -0.06729617 1.0966216 0.18277135 1.2767584
000060 0e c0 ae 3f 4b 67 6c 3f 46 43 f4 be 5e c1 1c 3f
       1.365236 0.9234511 -0.47707576 0.61232555
000070 41 39 8b 3f dc 23 2f 3f f7 c5 47 bf d4 7d 81 3e
       1.0876848 0.6841409 -0.78036445 0.25291312
000080 e3 88 33 bf 5f af e0 3e e6 f3 b4 3f 63 93 3f 3f
       -0.7013075 0.43883798 1.4136932 0.7483427
000090 3e 3b b4 3f 34 e1 08 bf a8 7c 87 3f 7b 34 5e 3f
       1.4080579 -0.5346863 1.0584917 0.8679883
0000a0 46 23 4f be e0 fd 43 3c 30 c5 86 3e 98 14 5c 3d
       -0.202283 0.011962384 0.26322317 0.053730577
0000b0 f8 9d b2 bd fb c7 59 bd 81 66 8d be 71 b5 4e be
       -0.087215364 -0.05316923 -0.27617267 -0.20186402
0000c0 56 b6 a5 3f 0d 0a d1 be 1d 23 49 bf b9 73 e9 3e
       1.294627 -0.4082798 -0.78569204 0.45596102
0000d0 4a c2 d3 be dc 8b 36 3f 20 c2 83 3f a6 d2 d9 be
       -0.41359168 0.7130716 1.0293617 -0.42543525
0000e0 a4 30 08 3e dc 90 9f 3f bd 81 e4 bd 91 5f 66 3d
       0.13299805 1.2466083 -0.11157558 0.056243483
0000f0 ae 13 bf 3e 68 d8 25 3f 8d 80 8f be 63 a8 45 3f
       0.37319702 0.64783335 -0.28027764 0.7721006

l2.bias f4 [8]
000000 c7 57 b5 3e f0 4b a0 be fe c8 b8 be 9c 52 1e 3e
       0.3541853 -0.31307936 -0.36090845 0.154612
000010 90 6b ad bd be 09 a3 bd 3a 1e 55 3f 3b 5d da be
       -0.084677815 -0.079608425 0.8324925 -0.42649254

l3.weight f4 [7, 8]
000000 9d bc a1 bf 8d a9 a7 3e 9e 57 59 3f c4 1a 20 3e
       -1.2635685 0.32746544 0.8489932 0.1563521
000010 52 b2 e7 bf d9 38 cf bd 11 5e b5 be e5 e6 f1 3e
       -1.8101294 -0.10118265 -0.3542333 0.4724647
000020 ce 02 26 3d cd 55 2b be e7 23 fb bf f2 93 b1 be
       0.04053002 -0.16731949 -1.9620332 -0.34683186
000030 56 6b d0 be d3 bd 61 be 25 eb 4f 3f e1 48 eb bf
       -0.4070689 -0.22045068 0.8121818 -1.8381616
000040 5b 73 88 bf fb ef 36 be 82 b2 ef bc 77 d0 a3 3e
       -1.0660204 -0.17864983 -0.029259924 0.31994984
000050 53 e4 5a bd 63 65 68 3d aa cd e3 be 20 ea 2d 3e
       -0.053440403 0.056737315 -0.44492847 0.16983843
000060 a1 1d 43 3f 08 27 dd 3d 15 66 ce 3e f9 96 89 bf
       0.76217085 0.1079846 0.40312257 -1.0749198
000070 5e b7 8d be 5a 1a 62 3e 12 b9 d1 be 03 f9 0a bf
       -0.2767896 0.22080365 -0.4096151 -0.5428621
000080 87 24 c4 3e 17 b0 af be 44 93 82 bf 21 1d 9c bf
       0.38309118 -0.34314033 -1.0201192 -1.219639
000090 dd 07 22 3f ed f0 14 3d d4 d0 9e bf b4 72 70 bf
       0.6329325 0.036362577 -1.2407479 -0.93925023
0000a0 29 d2 0b 3d 78 a9 d1 3d 25 bc 14 3d 68 ce 1d bf
       0.03413597 0.10237402 0.03631224 -0.61643076
0000b0 3f ce 9d 3e 31 8e 6a 3e 1a 62 e3 bf 5c 5b 0c 3f
       0.30821416 0.22905804 -1.7764313 0.54826903
0000c0 87 84 c3 bf 78 aa e0 3d 73 ac be bf fc c2 39 3f
       -1.5274819 0.10970014 -1.4896377 0.7256315
0000d0 53 f1 c8 bf d1 22 88 3e 52 83 1c 3f 7c 82 f2 be
       -1.5698646 0.26589063 0.6113788 -0.47365177

l3.bias f4 [7]
000000 e3 9d 01 bf 9b d2 5d 3e b4 1e 9a bc 6a f3 be 3d
       -0.5063154 0.21662371 -0.018813469 0.09323771
000010 03 e5 0d bf 21 85 20 bf 61 d2 ed 3b
       -0.5542757 -0.6270314 0.007257745
